umbrella/torch_tica.pt (torch, 17279 bytes, 1 tensors)

weight f4 [1, 1431]
0.019405663 0.038986452 0.026045576 -0.024518818 -0.013758386 0.09998101 -0.012993029 0.09538171
-0.07972663 0.09336004 0.0027609249 -0.0550732 0.073182434 -0.03615602 -0.48048973 -0.03851808
0.07908829 -0.1187792 0.0886471 -0.034850325 0.22612937 0.021917187 -0.124728076 0.15615597
-0.051257953 0.17935817 -0.13630918 0.3940006 0.014385456 0.10137712 -0.16980156 0.10572801
-0.28986546 0.2689482 -0.2059065 0.17718321 -0.054496434 -0.04788009 0.14882496 -0.17289111
0.12957555 -0.12134112 0.2550041 -0.061565317 0.35599723 0.038851693 -0.0027322238 -0.121983856
0.2134067 0.048684847 -0.318789 0.16616869 0.049612697 -0.061668064 0.46849424 -0.005311741
-0.11008865 0.29385692 -0.27684775 -0.076886356 0.39339444 -0.29976764 -0.041720174 0.22189665
-0.22212312 0.25798568 0.009219225 0.11463899 -0.3895635 0.40372607 -0.086102754 -0.18394382
0.054368123 0.11939384 -0.24967225 0.31450206 -0.16895768 -0.04609127 -0.004395415 -0.0014889779
0.16291212 -0.3568109 0.2647474 -0.09251939 0.044794403 -0.14540713 0.26108757 -0.3741981
0.35499212 -0.109033234 0.08491593 0.0038792829 -0.003121526 0.0076000798 0.072856255 -0.34570923
0.46809614 -0.30604175 0.2293903 -0.16490461 0.18815324 -0.22085236 0.08659143 -0.048298392
-0.0350829 -0.007663434 0.0074930163 -0.010696943 0.015589349 0.35972193 -0.61979765 0.3725129
-0.09387745 -0.22242302 0.25911853 -0.10439116 0.015924694 0.032388825 -0.015636375 -0.009982631
-0.0025797584 -0.0019458593 -0.0133823585 -0.0019541627 -0.15980381 0.3306187 -0.19059387 -0.097678125
0.32355142 -0.26849526 0.10409832 -0.03551864 -0.008324312 0.025692863 -0.014356536 0.22149369
0.002520071 0.0011081221 -0.0006010967 0.006085779 -0.005440215 -0.028058697 0.033005323 0.084052
-0.18569441 0.080068804 0.031679295 -0.023155468 -0.010225181 0.01902224 0.011288925 -0.0040121223
0.004048576 0.018521335 -0.052720908 0.058332954 -0.053489875 0.03155775 -0.029977746 0.05284688
0.010315203 -0.047985654 0.0008676657 0.010681669 0.018293865 -0.022834862 0.013905954 -0.0030908748
0.0008402764 -0.0019562738 0.0044147046 0.0045502554 0.05246183 -0.077902906 0.086194396 -0.08113521
0.0359122 -0.09023363 0.13642476 -0.04557105 0.016302137 -0.007802373 -0.006156368 -0.00091583363
-0.011294901 -0.004655847 -0.0013514826 0.0018753563 -0.0044491505 0.03252835 -0.03582962 0.037430067
-0.029187322 0.0056629293 0.041617837 -0.0010584182 -0.011483383 -0.0613545 0.0018707233 0.08851079
-0.054082528 -0.029959807 0.051835094 0.004296006 0.010300784 -0.017887658 -0.0057635936 0.0013760638
-0.03051293 0.03577242 0.022323856 -0.06439691 0.059091285 -0.028652176 -0.011383134 -0.01944806
0.10815302 -0.08326329 0.077090956 -0.08797246 0.022211237 -0.020259922 -0.00049679435 -0.034165382
0.026218243 0.011076409 0.010713327 -0.0046228836 0.078001566 -0.100815564 0.06479665 -0.010117256
-0.028128162 0.012424466 0.08333594 -0.013410055 0.004167985 -0.013611376 -0.048263077 -0.026858483
0.044386066 -0.019755496 -0.010326563 -0.0039596893 0.024399884 -0.00014118105 -0.020714924 0.007036787
0.007766801 -0.06838338 0.16992931 -0.095403336 -0.012726641 0.0247028 0.04472573 2.0450968e-06
00000000: a0f8 9e3c 42b0 1f3d 885d d53c b0db c8bc
00000010: da6a 61bc d8c2 cc3d b7e0 54bc 7c57 c33d
00000020: b747 a3bd 8c33 bf3d a2f0 343b 7094 61bd
00000030: ace0 953d 5618 14bd c002 f6be 22c5 1dbd
00000040: 0bf9 a13d 8242 f3bd 9c8c b53d 37bf 0ebd
00000050: 758e 673e ac8b b33c 6f71 ffbd 5ae7 1f3e
00000060: dcf3 51bd aba9 373e a294 0bbe 72ba c93e
00000070: fab0 6b3c cf9e cf3d 76e0 2dbe ed87 d83d
00000080: 3f69 94be 94b3 893e 27d9 52be 846f 353e
00000090: a737 5fbd ea1d 44bd 9265 183e 5e0a 31be
000000a0: 74af 043e b181 f8bd e68f 823e ea2b 7cbd
000000b0: 4545 b63e f422 1f3d 1c0f 33bb acd2 f9bd
000000c0: 4987 5a3e c369 473d 5038 a3be 2028 2a3e
000000d0: af36 4b3d a797 7cbd 7ade ef3e 1d0e aebb
000000e0: 2876 e1bd 6a74 963e fdbe 8dbe 9876 9dbd
000000f0: ff6a c93e 257b 99be c6e2 2abd e038 633e
00000100: 3e74 63be b316 843e 3b0c 173c d9c7 ea3d
00000110: de74 c7be 2fb5 ce3e a456 b0bd c55b 3cbe
00000120: 1cb1 5e3d c284 f43d 15aa 7fbe 6a06 a13e
00000130: 3e03 2dbe 33ca 3cbd 6a07 90bb cf29 c3ba
00000140: 6fd2 263e ebaf b6be f98c 873e ce7a bdbd
00000150: 567a 373d 9be5 14be 45ad 853e e596 bfbe
00000160: 87c1 b53e d14c dfbd 67e8 ad3d 913b 7e3b
00000170: 8492 4cbb 170a f93b a935 953d cd00 b1be
00000180: 4caa ef3e 81b1 9cbe 4ae5 6a3e c1dc 28be
00000190: 3eab 403e 1f27 62be d956 b13d 89d4 45bd
000001a0: 16b3 0fbd 8b1d fbbb fa87 f53b 3b42 2fbc
000001b0: 786a 7f3c 792d b83e 0fab 1ebf 03ba be3e
000001c0: d242 c0bd dcc2 63be 2fab 843e 08cb d5bd
000001d0: 8174 823c 25aa 043d db17 80bc 308e 23bc
000001e0: 2a11 29bb 340c ffba ae41 5bbc 6911 00bb
000001f0: 9ca3 23be db46 a93e 0a2b 43be 780b c8bd
00000200: 88a8 a53e 3678 89be 8031 d53d fe7b 11bd
00000210: b262 08bc d779 d23c ad37 6bbc 3ecf 623e
00000220: c727 253b 683e 913a eb92 1dba 376b c73b
00000230: d543 b2bb 5adb e5bc 9730 073d 7423 ac3d
00000240: ad26 3ebe 1dfb a33d 26c2 013d 89b0 bdbc
00000250: 8487 27bc 87d4 9b3c 2ff5 383c 1f78 83bb
00000260: eba9 843b 0eba 973c e1f1 57bd 89ee 6e3d
00000270: 3318 5bbd b342 013d e493 f5bc f875 583d
00000280: 1901 293c 9b8c 44bd 0f74 633a 2b02 2f3c
00000290: 04dd 953c 2d10 bbbc ccd5 633c 4690 4abb
000002a0: ff45 5c3a d434 00bb 3aa9 903b 4f1a 953b
000002b0: 37e2 563d 8f8b 9fbd b086 b03d 382a a6bd
000002c0: ac18 133d 69cc b8bd efb2 0b3e b6a8 3abd
000002d0: 0f8c 853c 0cab ffbb 5cbb c9bb 8e14 70ba
000002e0: 400e 39bc 1390 98bb 3b24 b1ba 84ce f53a
000002f0: 2eca 91bb 723c 053d 14c2 12bd 4550 193d
00000300: 401a efbc 1890 b93b 7777 2a3d 9fba 8aba
00000310: cd24 3cbc db4e 7bbd 0f33 f53a 2545 b53d
00000320: a485 5dbd 456e f5bc 0951 543d 83c5 8c3b
00000330: 9fc4 283c 2389 92bc 87dc bcbb 0a5d b43a
00000340: 41f6 f9bc 1a86 123d 85e0 b63c 87e2 83bd
00000350: b409 723d f8b7 eabc 5380 3abc 8a51 9fbc
00000360: 557f dd3d f285 aabd dde1 9d3d e82a b4bd
00000370: 57f4 b53c 23f8 a5bc 4e3b 02ba 00f1 0bbd
00000380: a4c7 d63c d479 353c f386 2f3c 8f7b 97bb
00000390: 49bf 9f3d 6478 cebd 1bb4 843d d9c2 25bc
000003a0: 086d e6bc fd8f 4b3c 09ac aa3d d9b5 5bbc
000003b0: 9893 883b 4002 5fbc 81af 45bd 5206 dcbc
000003c0: 2ace 353d 47d6 a1bc bf30 29bc 48c0 81bb
000003d0: 44e2 c73c 000a 14b9 58b2 a9bc d994 e63b
000003e0: a680 fe3b 960c 8cbd f301 2e3e d362 c3bd
000003f0: 6783 50bc 875d ca3c 5432 373d 7f3e 0936
